…
Sampler_train = <torch.utils.data.distributed.DistributedSampler object at 0x7f7553f7fcd0>
Mixup is activated!
Use checkpoint: True
Checkpoint number: 0
Patch size = (16, 16)
Load ckpt from videomamba_m16_k400_mask_ft_f16_res224.pth
Temporal interpolate from 8 to 32
size mismatch for head.weight: copying a param with shape torch.Size([400, 576]) from checkpoint, the shape in current model is torch.Size([28, 576]).
size mismatch for head.bias: copying a param with shape torch.Size([400]) from checkpoint, the shape in current model is torch.Size([28]).
Model = VisionMamba(
  (patch_embed): PatchEmbed(
    (proj): Conv3d(3, 576, kernel_size=(1, 16, 16), stride=(1, 16, 16))
  )
  (pos_drop): Dropout(p=0.0, inplace=False)
  (head_drop): Identity()
  (head): Linear(in_features=576, out_features=28, bias=True)
  (drop_path): DropPath()
  (layers): ModuleList(
    (0-1): 2 x Block(
      (mixer): Mamba(
        (in_proj): Linear(in_features=576, out_features=2304, bias=False)
        (conv1d): Conv1d(1152, 1152, kernel_size=(4,), stride=(1,), padding=(3,), groups=1152)
        (act): SiLU()
        (x_proj): Linear(in_features=1152, out_features=68, bias=False)
        (dt_proj): Linear(in_features=36, out_features=1152, bias=True)
        (conv1d_b): Conv1d(1152, 1152, kernel_size=(4,), stride=(1,), padding=(3,), groups=1152)
        (x_proj_b): Linear(in_features=1152, out_features=68, bias=False)
        (dt_proj_b): Linear(in_features=36, out_features=1152, bias=True)
        (out_proj): Linear(in_features=1152, out_features=576, bias=False)
      )
      (norm): RMSNorm()
      (drop_path): Identity()
    )
    (2-31): 30 x Block(
      (mixer): Mamba(
        (in_proj): Linear(in_features=576, out_features=2304, bias=False)
        (conv1d): Conv1d(1152, 1152, kernel_size=(4,), stride=(1,), padding=(3,), groups=1152)
        (act): SiLU()
        (x_proj): Linear(in_features=1152, out_features=68, bias=False)
        (dt_proj): Linear(in_features=36, out_features=1152, bias=True)
        (conv1d_b): Conv1d(1152, 1152, kernel_size=(4,), stride=(1,), padding=(3,), groups=1152)
        (x_proj_b): Linear(in_features=1152, out_features=68, bias=False)
        (dt_proj_b): Linear(in_features=36, out_features=1152, bias=True)
        (out_proj): Linear(in_features=1152, out_features=576, bias=False)
      )
      (norm): RMSNorm()
      (drop_path): DropPath()
    )
  )
  (norm_f): RMSNorm()
)
number of params: 73675036
LR = 0.00050000
Batch size = 128
Repeated sample = 1
Update frequent = 1
Number of training examples = 3191
Number of training training per epoch = 24
Assigned values = [… Skip weight decay list:  {'pos_embed', 'temporal_pos_embedding', 'cls_token'}
…
